tennis/elo_model.pth (torch, 13980 bytes, 5 tensors)

model.0.weight f4 [64, 10]
0	0xbd9e90e0	-0.077424765
1	0xbe123f7d	-0.14282031
2	0x3e3fa1d6	0.1871408
3	0x3d801de5	0.06255702
4	0x3e54fac2	0.20798782
5	0xbe881182	-0.26575857
6	0xbe30c786	-0.17263612
7	0xbde0d319	-0.10977764
8	0x3e8a5dc3	0.2702466
9	0xbe2510aa	-0.16119638
10	0xbd94d280	-0.07266712
11	0x3d850ffb	0.06497189
12	0x3eb24311	0.34816793
13	0x3dec82a7	0.115483575
14	0x3df86a0d	0.121296026
15	0xbd7fee50	-0.062483132
16	0xbcbb6640	-0.022875905
17	0x3ea4c84f	0.32184073
18	0xbda34e1e	-0.07973884
19	0xbc1c9411	-0.009556786
20	0x3e859fce	0.26098484
21	0x3e3f316e	0.186712
22	0xbe1e6c39	-0.15470971
23	0xbdb3d4f1	-0.0878085
24	0xbd33d176	-0.04390093
25	0xbe0a3417	-0.13496433
26	0xbea10eb1	-0.3145652
27	0xbd39250e	-0.045201354
28	0xbe8daf5c	-0.2767285
29	0xbd34e350	-0.044162095
30	0xbe82aaf9	-0.25521067
31	0x3e386553	0.18007402
32	0xbe4d4e80	-0.20049477
33	0xbe799474	-0.24373037
34	0x3e04d92e	0.12973472
35	0xbdeee83f	-0.11665391
36	0x3dd987ee	0.1062163
37	0x3e1d0b1d	0.1533627
38	0x3e04fee9	0.12987866
39	0x3e075ca7	0.13218938
40	0xbe8b3c89	-0.27194622
41	0x3e836634	0.25663912
42	0x3e5cca7d	0.21561618
43	0xbe2e6b5c	-0.17033142
44	0xbe54d317	-0.2078365
45	0xbdb55bb4	-0.088553816
46	0x3e4e2006	0.20129403
47	0x3db4f071	0.08834923
48	0x3da6e7ed	0.08149705
49	0xbe5010cf	-0.20318912
50	0x3dfb6c87	0.12276559
51	0x3de5bea5	0.11218003
52	0xbe3c167f	-0.18367957
53	0x3e9d4298	0.3071487
54	0x3de8a103	0.113588355
55	0x3e811d25	0.25217548
56	0x3ccd336c	0.025048934
57	0x3de24c2f	0.11049687
58	0x3cc671c4	0.02422417
59	0xbdf66870	-0.120316386
60	0x3e6ae89a	0.22940293
61	0x3d9cb463	0.076515935
62	0xbe0ff332	-0.14057615
63	0xbd050110	-0.032471716
64	0xbd23d975	-0.040002305
65	0xbe053ca1	-0.1301141
66	0x3e5ac678	0.21364772
67	0xbe411ebc	-0.1885938
68	0xbe58c6fa	-0.21169654
69	0xbe552996	-0.20816645
70	0x3d3fe1af	0.046846088
71	0x3e3b6a28	0.18302214
72	0x3e2ae766	0.16689834
73	0xbdd9b726	-0.10630636
74	0x3e4019cb	0.18759839
75	0x3de47ec6	0.111569926
76	0xbe240cef	-0.16020559
77	0x3e89216c	0.2678331
78	0xbe6d2acd	-0.23160858
79	0xbe5e11c9	-0.21686472
80	0x3e5195f4	0.20467359
81	0x3ea58ea3	0.32335386
82	0x3d98669f	0.074414484
83	0xbe8e5871	-0.2780185
84	0x3e991a96	0.29903096
85	0x3ea561ce	0.32301182
86	0xbd2dd698	-0.04244098
87	0x3da421ca	0.08014257
88	0xbe6b07c5	-0.22952183
89	0x3e51eb53	0.20499925
90	0xbdb2e8ac	-0.08735785
91	0x3e8d2272	0.27565342
92	0x3dd4b78a	0.1038657
93	0x3e4474ec	0.19185227
94	0x3d6ed6d6	0.058310352
95	0x3e8a8067	0.27051088
96	0xbe3b895f	-0.18314122
97	0x3db4e31d	0.08832381
98	0xbe84263b	-0.25810418
99	0x3d8553f9	0.06510157
100	0xbd78cb18	-0.06074056
101	0xbe454e24	-0.1926809
102	0x3ce6ec48	0.02818884
103	0xbeab513b	-0.3346041
104	0xbe79c995	-0.24393304
105	0x3e9e28d7	0.30890533
106	0x3e54acba	0.20769015
107	0x3caf6e95	0.021415034
108	0x3e7b7ef9	0.24560155
109	0x3e0e017c	0.13867754
110	0x3e12e702	0.14345935
111	0xbcb36001	-0.021896364
112	0xbe1218c0	-0.14267254
113	0xbdcf016a	-0.101076916
114	0x3e229578	0.1587733
115	0x3df27cc0	0.118402004
116	0x3daa1adf	0.083059065
117	0x3e064bb3	0.13114814
118	0x3e5194de	0.20466945
119	0xbb840000	-0.0040283203
120	0xbe14d728	-0.145352
121	0xbea7f357	-0.3280284
122	0x3d21b887	0.03948262
123	0x3e97ea26	0.2967083
124	0x3ae94caa	0.0017799337
125	0xbd9828fc	-0.07429692
126	0xbe4d3c5e	-0.2004256
127	0x3ea2be02	0.3178559
128	0x3e5b1449	0.21394457
129	0xbea1ef3c	-0.31627834
130	0xbeb7c3fb	-0.3589171
131	0x3d8a9003	0.06765749
132	0x3e4a1968	0.19736254
133	0x3e418aed	0.18900652
134	0xbeba25f5	-0.36357084
135	0x3e04d4e0	0.1297183
136	0x3e41725f	0.18891285
137	0x3cfd17b0	0.030895084
138	0xbb15fb68	-0.0022885446
139	0x3e3b8ba3	0.18314986
140	0xbe1be995	-0.15225823
141	0x3e715139	0.2356614
142	0xbd6052bc	-0.0547664
143	0x3e2afdcc	0.16698378
144	0xbe6ed5d2	-0.23323753
145	0x3e981fd6	0.2971179
146	0xbd9b0ca0	-0.075707674
147	0x3e0a7170	0.13519835
148	0x3e89da34	0.26924288
149	0x3ccada07	0.024762167
150	0x3e6577d5	0.22408994
151	0xbd837a53	-0.06419816
152	0x3d3cd2fa	0.04609964
153	0xbe917a37	-0.28413555
154	0xbea454dd	-0.32095996
155	0xbdb4daf9	-0.08830828
156	0x3e6fb799	0.2340988
157	0x3e47a179	0.1949519
158	0x3e95eca2	0.292821
159	0x3dc67098	0.09689444
160	0x3e1d51c6	0.15363225
161	0xbdb94cc7	-0.09047847
162	0xbdf5839d	-0.11987994
163	0xbe927efa	-0.286125
164	0x3e5be1e0	0.21472883
165	0x3e6f9a6a	0.23398748
166	0x3ea7d2be	0.3277797
167	0x3e12467f	0.14284705
168	0xbe98776b	-0.2977861
169	0x3e94305c	0.28943145
170	0x3cba3610	0.022730857
171	0xbd94e181	-0.07269574
172	0x3e583e8f	0.21117614
173	0x3df15688	0.11784083
174	0xbe0948ac	-0.13406628
175	0x3e161c08	0.1465913
176	0x3eaf96b9	0.3429468
177	0x3e1c516e	0.15265438
178	0x3e74737b	0.23872177
179	0xbeb7dd72	-0.35911137
180	0xbe5c22ff	-0.21497725
181	0x3d5de3b8	0.054172248
182	0xbe38a239	-0.18030633
183	0x3e6a3412	0.22871426
184	0xbe8f06cf	-0.27934882
185	0x3e7bec5b	0.24601881
186	0xbe2ecd26	-0.17070445
187	0xbe83c5e6	-0.25736922
188	0x3e0186d3	0.12649088
189	0x3dca3b48	0.09874588
190	0xbe5e1891	-0.21689059
191	0x3e9a721d	0.30165187
192	0x3d9cd876	0.07658474
193	0x3e8428e2	0.2581244
194	0xbca523d9	-0.020158695
195	0x3d7c2086	0.061554454
196	0xbe8d6811	-0.2761846
197	0xbe7cc711	-0.24685313
198	0xbe289f78	-0.16467083
199	0x3e24d820	0.1609807
200	0xbdd62044	-0.10455373
201	0x3e83045d	0.25589266
202	0x3eb62a7f	0.35579297
203	0x3e5d28c5	0.21597584
204	0x3e991f79	0.29906824
205	0x3e5f8567	0.21828233
206	0xbe26addb	-0.16277258
207	0x3ea4eddc	0.32212722
208	0xbd5cfa75	-0.053949792
209	0x3e1e9d0d	0.15489598
210	0x3e6ed8a8	0.23324835
211	0xbe26dd59	-0.16295375
212	0xbe75b8aa	-0.23996225
213	0xbdab1b1e	-0.083547816
214	0x3e7c573f	0.24642657
215	0xbe846a66	-0.25862426
216	0x3e2cafb2	0.16863897
217	0x3e29dfc5	0.16589268
218	0x3d61c530	0.055119693
219	0x3e238d40	0.15971851
220	0x3de9a426	0.11408262
221	0x3cb80db7	0.022467477
222	0x3e55cab5	0.20878108
223	0xbd87ff95	-0.06640545
224	0xbdddcff9	-0.10830683
225	0xbda71b59	-0.08159513
226	0xbe9e35a1	-0.3090029
227	0x3e921e66	0.28538817
228	0xbe7e0229	-0.24805512
229	0xbe11a268	-0.1422211
230	0x3d11d1ff	0.03560066
231	0xbe836a5c	-0.25667083
232	0xbce11a4d	-0.027478362
233	0xbe262933	-0.16226654
234	0x3e8c8d93	0.27451763
235	0x3dabfb40	0.083975315
236	0x3dbcbf5f	0.09216189
237	0x3dff2019	0.12457294
238	0x3dc03553	0.09385171
239	0x3d85c0aa	0.065308884
240	0x3b843c07	0.004035476
241	0xbdfc882b	-0.123306595
242	0xbe280c78	-0.16411006
243	0x3e512ea9	0.20427956
244	0xbcb5d86e	-0.022197928
245	0x3d31e637	0.04343244
246	0x3eb3ec37	0.35141155
247	0xbe6f76e0	-0.23385191
248	0x3e82df3d	0.25560942
249	0xbea2c91d	-0.31794062
250	0x3e13a0c7	0.144168
251	0xbe9733b0	-0.29531622
252	0x3e11c3e7	0.14234887
253	0x3db68961	0.08912922
254	0xbc925eae	-0.017867412
255	0x3e01841a	0.12648049

model.0.bias f4 [64]
0	0xbe029a80	-0.1275425
1	0xbde57cd3	-0.11205449
2	0x3dbfe292	0.09369387
3	0x3e9e23ff	0.30886838
4	0xbd0ad71c	-0.03389655
5	0xbe6da97d	-0.23209186
6	0xbea57dde	-0.32322592
7	0xbcd47620	-0.025935233
8	0x3b417108	0.0029516835
9	0xbd157b19	-0.03649435
10	0x3e17abdb	0.14811651
11	0xbe5c2512	-0.21498516
12	0x3e77bb57	0.24192558
13	0x3e63b62c	0.22237462
14	0xbe4f6d6d	-0.20256586
15	0x3e8add4c	0.2712196
16	0xbd9596c9	-0.073041506
17	0x3e95b42e	0.2923903
18	0x3e8f6609	0.28007534
19	0xbdb7add8	-0.08968705
20	0x3c79f9a1	0.01525727
21	0xbdd89641	-0.10575534
22	0x3e9089a3	0.28230008
23	0x3eb25fa3	0.3483859
24	0x3e094296	0.13404307
25	0xbdb76dca	-0.089564875
26	0x3e6802fb	0.22657387
27	0x3e0f42ec	0.13990372
28	0xbdd82f62	-0.105559126
29	0xbe1709ea	-0.14749876
30	0xbe3dae0d	-0.18523426
31	0xbe1a32fb	-0.1505851
32	0x3e295eb3	0.16540031
33	0x3e890041	0.26758006
34	0x3caa3538	0.02077733
35	0x3ebcfc47	0.36911222
36	0xbe9f8ea8	-0.31163526
37	0xbe0bcb3b	-0.13651745
38	0x39648ad0	0.00021795486
39	0x3e2c955e	0.16853854
40	0xbda4e12b	-0.0805076
41	0x3e2ed452	0.17073181
42	0xbe118071	-0.14209153
43	0x3d802a2b	0.06258043
44	0x3ea961eb	0.33082518
45	0xbe682e75	-0.22673972
46	0x3e1b7e73	0.15184955
47	0x3d0cd916	0.034386717
48	0xbe1dc06d	-0.15405436
49	0xbe6b8aa8	-0.23002112
50	0x3e87ba2b	0.26509222
51	0xbe66338c	-0.22480601
52	0x3c95e998	0.018299863
53	0xbe831a04	-0.25605786
54	0xbe58891c	-0.21146053
55	0x3e122e71	0.14275528
56	0x3d2070c7	0.039170053
57	0xbe0da2b9	-0.13831605
58	0x3df43cf6	0.1192569
59	0x3eb41764	0.35174096
60	0x3df10f80	0.117705345
61	0x3df3d6d9	0.11906213
62	0x3de8f530	0.11374891
63	0xbd0ad16c	-0.033891127

model.2.weight f4 [32, 64]
0	0x3dba8648	0.09107643
1	0xbd7110d0	-0.058853924
2	0xbd11c234	-0.035585597
3	0x3d8bf226	0.068332955
4	0x39bb71b9	0.0003575215
5	0x3da0a2b5	0.07843534
6	0x3dd74f3f	0.10513162
7	0xbddf3e9a	-0.10900612
8	0x3cd7125e	0.026253875
9	0x3c3a1dfc	0.011359688
10	0xbcccdef1	-0.02500865
11	0xbd29afc6	-0.041427396
12	0xbdbd7bcc	-0.09252128
13	0x3d34d300	0.044146538
14	0x3dd3a4cb	0.10334166
15	0xbd268065	-0.04064979
16	0x3d8ba60d	0.06818781
17	0xbe019dc3	-0.12657838
18	0xbdaa43ef	-0.083137386
19	0xbda29c2c	-0.07939944
20	0x3c2138f1	0.009840236
21	0xbd8f6e0c	-0.07003412
22	0x3c28298f	0.010263815
23	0x3d8cf7ca	0.068831995
24	0x3cb52c46	0.022115838
25	0x3da19dca	0.07891424
26	0xbd9b013d	-0.075685956
27	0xbe008e63	-0.12554316
28	0xbc2ed891	-0.010671751
29	0xbd8020f1	-0.06256283
30	0xbdd7b5a6	-0.105326936
31	0xbdb28904	-0.0871754
32	0xbc54ff49	-0.013000318
33	0xbda631a5	-0.08114938
34	0xbe0a8355	-0.13526662
35	0xbc91d1bb	-0.017800203
36	0xbdef89fd	-0.11696241
37	0x3d75faf4	0.06005378
38	0xbda1a2f8	-0.07892412
39	0xbcbac652	-0.022799645
40	0xbdc68119	-0.09692592
41	0xbcdff99b	-0.0273407
42	0x3daa5c1a	0.08318348
43	0xbda9b933	-0.08287277
44	0xbca144ae	-0.01968607
45	0xbd98a8af	-0.07454049
46	0x3c4a3712	0.012342231
47	0xbe06f156	-0.13178
48	0x3da67258	0.08127278
49	0x3d4257f1	0.04744715
50	0xbe067fec	-0.13134736
51	0xbda7fd14	-0.08202568
52	0xbdd24085	-0.102662124
53	0x3d91a62c	0.07111773
54	0x3ba8e2b9	0.0051539806
55	0xbc63dcfa	-0.013907665
56	0x3d3b30a7	0.045700695
57	0xbd2a9dbe	-0.04165434
58	0xbe054ecc	-0.1301834
59	0x3d49398b	0.049127143
60	0xbddc99b9	-0.10771508
61	0xbd07f022	-0.033187993
62	0xbdf73f21	-0.12072588
63	0x3cef94c5	0.029245744
64	0x3d259334	0.040423587
65	0xbd95edb8	-0.07320732
66	0x3d11c0b1	0.035584155
67	0xbd8fbe40	-0.07018709
68	0x3dcb8e15	0.09939209
69	0xbd25c49f	-0.040470716
70	0x3c967768	0.018367484
71	0x3c2328f4	0.009958494
72	0x3cc6faa2	0.024289433
73	0xbd3dcc91	-0.046337668
74	0x3db62813	0.08894362
75	0xbde7cbc6	-0.113181636
76	0x3ce1fdc1	0.02758682
77	0xbdff415f	-0.124636404
78	0xbd555f7d	-0.052093018
79	0xbcd134ad	-0.025537813
80	0xbcde88f7	-0.02716492
81	0x3b98d3d6	0.0046639247
82	0x3c3b394b	0.011427234
83	0x3d75673e	0.059912913
84	0x3da378a3	0.07981994
85	0xbdc86ae0	-0.0978601
86	0xbd9cc2bf	-0.07654332
87	0xbd3f63a9	-0.046725903
88	0x3d958127	0.073000245
89	0xbd9dce25	-0.077053346
90	0x3dc58b6b	0.096457325
91	0xbe0816ad	-0.132899
92	0xbd158c8c	-0.03651099
93	0xbb3cb35f	-0.0028793437
94	0xbd0ab7fb	-0.033866864
95	0xbd2bb158	-0.041917175
96	0x3d06de84	0.03292705
97	0x3c3a07df	0.011354416
98	0xbde03b2e	-0.10948788
99	0x3d80878c	0.062758535
100	0x3c5e4012	0.01356508
101	0x3d5e4e58	0.054273933
102	0xbd71b6c2	-0.059012182
103	0xbda692d2	-0.081334725
104	0x3dc18aea	0.09450324
105	0xbe0e5723	-0.13900428
106	0xbac6073c	-0.0015108357
107	0xbdd4b77d	-0.1038656
108	0x3d314660	0.043280005
109	0x3d9a2a6f	0.07527625
110	0x3ce23bbf	0.02761638
111	0xbd04685f	-0.0323261
112	0xbdc4b806	-0.09605412
113	0xbdea3c2d	-0.11437259
114	0x3c642b97	0.013926408
115	0xbdcf4ba3	-0.101218484
116	0x3ce830b4	0.028343536
117	0xbde3c54e	-0.11121617
118	0xbbc5393a	-0.006018785
119	0xbdfd1cf0	-0.12359035
120	0x3daf3026	0.085541055
121	0x3dc4d7bd	0.09611461
122	0xbdabce41	-0.08388949
123	0x3d45a388	0.04825166
124	0xbd893ff3	-0.067016505
125	0x3c313bda	0.010817492
126	0x3d736313	0.059420656
127	0xbdda3e30	-0.106563926
128	0xbd4ca2ef	-0.049960073
129	0xbd5eaea0	-0.054365754
130	0x3d53411c	0.051575765
131	0x3e00fb48	0.12595856
132	0x3e2418a2	0.16025022
133	0x3e2f51b6	0.17121014
134	0x3d2d246a	0.042271055
135	0xbd55a4af	-0.052159008
136	0x3e18e7c4	0.14932162
137	0x3e185ca0	0.14879084
138	0x3e23a811	0.15982081
139	0x3decb277	0.11557477
140	0x3d0b890d	0.03406625
141	0x3e0e9203	0.13922887
142	0x3dd2355f	0.10264086
143	0xbc7f81bf	-0.015594899
144	0x3e0af403	0.13569646
145	0x3c8c5a2d	0.017132843
146	0x3cb1750c	0.021662258
147	0xbc3b047c	-0.011414643
148	0xbc0eedb6	-0.008723667
149	0xbd8122f9	-0.06305499
150	0x3d42335f	0.047412273
151	0x3da971f2	0.082736865
152	0x3e287797	0.1645187
153	0x3e22b6cc	0.15890044
154	0x3db4162b	0.08793291
155	0x3d255411	0.040363375
156	0xbc4fae93	-0.012675899
157	0x3cfb9b94	0.030713834
158	0xbd19db86	-0.03756287
159	0x3e257eb8	0.1616162
160	0x3de33240	0.11093569
161	0x3d6633b5	0.056201655
162	0x3d026529	0.031834755
163	0x3d816926	0.063188836
164	0x3d1275ad	0.035756756
165	0x3dd412bd	0.103551365
166	0x3d0bb041	0.034103636
167	0x3d6b46e5	0.057440657
168	0x3d2cbf2c	0.042174503
169	0x3d331aef	0.043726858
170	0x3e1a4ad9	0.15067615
171	0x3cd36051	0.025802763
172	0x3d6b6d17	0.057477083
173	0xbc56431d	-0.0130775245
174	0xbd194894	-0.03742273
175	0xbd3c82af	-0.046023067
176	0x3d713179	0.05888507
177	0xbd6ea9b1	-0.0582673
178	0x3d8241ad	0.06360183
179	0x3dbfed55	0.09371439
180	0x3c9dbc4f	0.019254832
181	0x3adb9f32	0.0016755818
182	0x3b4f4466	0.0031626462
183	0x3d6d1576	0.057881795
184	0xbc477df7	-0.012176028
185	0xbd80bc04	-0.06285861
186	0x3d07f9f7	0.03319737
187	0x3ddcb0b2	0.107758895
188	0xbbf89f6c	-0.007587364
189	0x3e11144e	0.14167902
190	0x3da91eb0	0.08257806
191	0xbcb1019c	-0.021607213
192	0xbd5148f9	-0.051094983
193	0xbd905ae9	-0.0704859
194	0x3e153344	0.14570338
195	0x3e09c886	0.134554
196	0x3dd24553	0.10267129
197	0x3c9abbcf	0.018888382
198	0x3c21b68b	0.009870182
199	0x3e28be73	0.164789
200	0x3d02c04a	0.031921662
201	0xbd7aebc8	-0.061260015
202	0xbc8206e4	-0.015872426
203	0x3cdcd5c2	0.026957396
204	0x3d55b724	0.05217661
205	0x3d8eae7e	0.069668755
206	0xbd187665	-0.037222285
207	0xbbe683c7	-0.007034752
208	0x3e1b5040	0.15167332
209	0x3cbeeafc	0.023305409
210	0x3d8db7e2	0.069198385
211	0x3d6a2073	0.057159852
212	0xbcf307c0	-0.029666781
213	0xbd02c263	-0.031923663
214	0x3d667872	0.05626721
215	0x3e1fe564	0.1561485
216	0x3e266ad0	0.16251683
217	0xbd94f057	-0.07272404
218	0x3dd7967f	0.10526752
219	0x3e2c2bdf	0.1681361
220	0xbca15f21	-0.019698681
221	0xbd170096	-0.036865793
222	0x3da496b2	0.08036555
223	0x3e104316	0.14088091
224	0xbb497f7c	-0.0030746153
225	0xbd6e41eb	-0.058168333
226	0xbc100595	-0.008790393
227	0xbd859c0d	-0.06523905
228	0x3bce867b	0.0063026524
229	0xbd0259dc	-0.031823978
230	0x3dea1e9f	0.11431622
231	0x3db9699e	0.09053348
232	0x3e20af9c	0.1569199
233	0xbca005fc	-0.019534104
234	0xbd5a3fec	-0.053283617
235	0x3e26c666	0.1628662
236	0x3d9750de	0.07388471
237	0x3e22f8ff	0.15915297
238	0x3df57c16	0.11986558
239	0x3d9a5324	0.07535389
240	0x3e149d87	0.14513217
241	0x3e0d6fb5	0.13812144
242	0x3cb7c78a	0.022434015
243	0x3e0367fd	0.12832637
244	0xbd965bd3	-0.07341733
245	0x3e0d142d	0.13777228
246	0xbd5d284d	-0.053993512
247	0x3c84cf82	0.016212229
248	0x3de82a4f	0.11336195
249	0x3e057a79	0.13035001
250	0x3d7a84c5	0.061161775
251	0x3db4d98f	0.088305585
252	0xbd89cdd7	-0.06728714
253	0xbd3783c8	-0.04480341
254	0xbc81697a	-0.015797365
255	0xbd8393ad	-0.06424651

model.2.bias f4 [32]
0	0x3d40efa0	0.047103524
1	0xbd3238cc	-0.043511197
2	0xbb42b412	-0.002970938
3	0x3cb1c121	0.021698536
4	0xbc34f32f	-0.011044308
5	0x3da9ce5e	0.082913145
6	0x3dbd7a4c	0.09251842
7	0x3e0cc5aa	0.13747278
8	0xbc4f633b	-0.012657936
9	0x3c913ff7	0.017730696
10	0x3d19ada3	0.03751911
11	0xbded233b	-0.11578985
12	0x3c6e612c	0.014549535
13	0x3dc81af9	0.097707696
14	0x3d0de272	0.034639783
15	0x3d9eef2b	0.077604614
16	0xbcbb2dc6	-0.022848975
17	0xbd905f77	-0.070494585
18	0x3cf4736d	0.029840196
19	0x3e11bbf5	0.14231856
20	0xbd5cca9d	-0.053904165
21	0xbce9b220	-0.02852732
22	0x3cd3d5d3	0.025858795
23	0x3afa3e2f	0.0019092018
24	0x3da92306	0.08258633
25	0x3dcc2ca1	0.0996945
26	0x3db57f09	0.08862121
27	0x3d8c425b	0.06848594
28	0x3e077a32	0.13230208
29	0xbcb4ce90	-0.022071153
30	0x3e073b6e	0.13206264
31	0x3d92c440	0.07166338

model.4.weight f4 [1, 32]
0	0xbde23ca8	-0.110467255
1	0xba99d32b	-0.0011735907
2	0x3d9eb2ff	0.077489845
3	0x3e56228e	0.20911619
4	0x3e1c9263	0.15290217
5	0xbe0f7401	-0.14009096
6	0x3e0831fc	0.13300318
7	0x3e1593e3	0.14607196
8	0xbdbcfc89	-0.09227855
9	0x3e147ad0	0.14499974
10	0x3d1fab6a	0.038981833
11	0xbcd12971	-0.025532456
12	0x3c2ffa7f	0.010740875
13	0x3e6b7b50	0.22996259
14	0x3e38fd82	0.18065456
15	0xbe09ae74	-0.13445455
16	0xbdb29e41	-0.08721591
17	0x3e302a03	0.17203526
18	0x3e3b2d7e	0.18279073
19	0x3e1f89ea	0.15579954
20	0xbcc649a8	-0.024205044
21	0x3e5ba7bd	0.21450706
22	0xbe19f3db	-0.1503443
23	0x3e249bba	0.1607503
24	0x3def6950	0.11690009
25	0xbbf9a60a	-0.0076186704
26	0x3de9c945	0.11415342
27	0xbd35d127	-0.044388916
28	0x3d670ec5	0.05641057
29	0xbdc7928b	-0.09744748
30	0x3de9713d	0.113985516
31	0x3e14d457	0.14534126
